output/unet_wound.pth (torch, 482987 bytes, 25 tensors)

weight f4 [16, 3, 3, 3]
0	0x3e651ef5	0.2237509
1	0xbdcaeab5	-0.09908048
2	0xbdb90113	-0.09033408
3	0x3e005842	0.12533668
4	0xbdd41fdb	-0.103576384
5	0x3bca788e	0.006178922
6	0xbd289a2a	-0.041162647
7	0x3e22c85e	0.15896747
8	0xbe19a675	-0.15004905
9	0x3da94e15	0.08266846
10	0xbdafd7d3	-0.08586087
11	0x3c477caf	0.012175723
12	0x3e86af54	0.2630564
13	0x3ceabf9c	0.02865582
14	0x3cb72a3f	0.022359012
15	0xbc8d2da6	-0.017233681
16	0x3d95a6f8	0.073072374
17	0xbe0d0111	-0.13769938
18	0xbc914c16	-0.017736476
19	0x3e09b992	0.13449696
20	0x3d93fdea	0.07226165
21	0x3e289b66	0.1646553
22	0xbe06e64b	-0.13173787
23	0xbd2df5ad	-0.042470623
24	0x3e57fe56	0.21093115
25	0xbbf332d9	-0.007421833
26	0x3e1b664b	0.1517574
27	0x3d8f3dde	0.06994222
28	0x3e487619	0.195763
29	0x3e23822f	0.1596763
30	0x3d8c77ca	0.068587855
31	0xbcbb9044	-0.02289594
32	0x3b0fefaf	0.002196293
33	0x3dd76d5a	0.10518904
34	0xbdb70f80	-0.08938503
35	0x3e435286	0.19074449
36	0xbe5a05f3	-0.21291332
37	0xbe64f941	-0.22360708
38	0xbde2ee19	-0.1108057
39	0xbca7967c	-0.020457499
40	0xbe285605	-0.16439064
41	0xbe03713e	-0.12836167
42	0xbd293968	-0.041314512
43	0xbe07ad1b	-0.13249628
44	0x3d997787	0.07493501
45	0x3e3eae44	0.18621165
46	0x3e116a63	0.1420074
47	0xbe25bb3c	-0.16184705
48	0xbd918893	-0.071061276
49	0xbbb08385	-0.005386772
50	0x3dc4f06f	0.096161716
51	0x3e07ccb8	0.13261688
52	0x3d912be4	0.070884496
53	0xbe04366a	-0.12911382
54	0x3de57563	0.1120403
55	0x3d6a0454	0.057133034
56	0x3d24b3c4	0.0402105
57	0xbd9c8f88	-0.07644564
58	0x3cc9ce6e	0.024634566
59	0xbe3ca642	-0.18422797
60	0xbe127a7a	-0.14304534
61	0xbd397386	-0.045276187
62	0x3be9e92e	0.007138393
63	0x3e33dce0	0.17564726
64	0x3da825d6	0.08210342
65	0x3dc584da	0.0964448
66	0x3e579549	0.21053042
67	0x3e0d4e6c	0.13799447
68	0x3e1c8c79	0.15287961
69	0xbe2e7c25	-0.17039545
70	0x3d860dbf	0.065455906
71	0xbe2fa2b7	-0.17151915
72	0xbe1b09df	-0.15140484
73	0xbe5218e3	-0.20517306
74	0xbe03cb6f	-0.12870573
75	0x3dedd4f8	0.11612886
76	0xbdb076c4	-0.08616403
77	0x3e1d9e8e	0.15392515
78	0xbe48ab1c	-0.19596523
79	0x3d7c1dd3	0.06155188
80	0xbd5da646	-0.05411365
81	0x3e17c9ca	0.1482307
82	0x3e0ddc89	0.13853659
83	0x3b950588	0.0045477785
84	0xbe04550c	-0.12923068
85	0x3d6f2cc1	0.05839229
86	0x3d80cde9	0.06289274
87	0xbdc0d229	-0.09415085
88	0xbe3b531e	-0.18293425
89	0x3cde24c9	0.02711715
90	0x3d540312	0.05176074
91	0xbdb49b66	-0.088187024
92	0x3e054a18	0.13016546
93	0xbd67711c	-0.056504354
94	0x3b37b077	0.0028028765
95	0x3c9bafcb	0.019004723
96	0x3e0fbfb4	0.14037973
97	0x3e4a1596	0.19734797
98	0xbe1db127	-0.1539961
99	0xbc2b8eb2	-0.010471033
100	0xbe535c32	-0.20640638
101	0xbe39f890	-0.18161225
102	0xbb83aede	-0.0040186485
103	0xbe02e595	-0.12782891
104	0x3dc570af	0.09640633
105	0xbd7081b3	-0.05871744
106	0x3d069b5a	0.032863
107	0x3db54812	0.08851637
108	0x3d89a1df	0.067203276
109	0x3dd30ff3	0.103057764
110	0xbcfe5c10	-0.031049758
111	0xbd799224	-0.060930386
112	0xbe000cf0	-0.12504935
113	0xbd28d9d6	-0.04122337
114	0xbdfc2aca	-0.12312849
115	0xbdb406c7	-0.08790355
116	0xbdbbe93d	-0.09175346
117	0xbe517861	-0.20456077
118	0xbc21007a	-0.009826774
119	0xbc29244e	-0.010323597
120	0xbdd95e65	-0.106137075
121	0x3e283497	0.16426311
122	0x3d63cb1e	0.05561363
123	0xbe023b8f	-0.12718032
124	0x3e069950	0.13144422
125	0xbe3795d6	-0.17928252
126	0x3d8f4ca3	0.06997039
127	0xbda910b6	-0.082551405
128	0xbd949217	-0.07254427
129	0xbe581ca2	-0.21104673
130	0x3d496f7c	0.049178585
131	0x3df3c061	0.11901928
132	0xbdb14899	-0.08656425
133	0x3d7e0571	0.062016908
134	0x3d606251	0.05478126
135	0x3cbcbf85	0.023040542
136	0x3cd17bf7	0.025571806
137	0xbdde0551	-0.10840858
138	0xbd7435b0	-0.059621513
139	0x3e409ad2	0.1880906
140	0x3b03ad51	0.0020092318
141	0x3e1d0b1e	0.15336272
142	0x3e261021	0.1621709
143	0xbcf4865f	-0.02984923
144	0x3d89c1cc	0.06726417
145	0xbe58e4ce	-0.21181032
146	0xbe4045c2	-0.1877661
147	0x3c01bcad	0.007918519
148	0x3d49cd33	0.04926796
149	0x3ddaddb5	0.106868185
150	0xbd2c6eb6	-0.04209777
151	0xbdb2ca87	-0.08730035
152	0xbd8dff01	-0.06933404
153	0x3d4b482c	0.049629375
154	0xbda47796	-0.08030622
155	0xbe08f41a	-0.13374367
156	0xbe43787c	-0.1908893
157	0xbe4c967d	-0.19979282
158	0xbde281f2	-0.11059941
159	0xbe1d742b	-0.15376346
160	0xbe4056fa	-0.18783179
161	0x3d130aa4	0.03589882
162	0x3e4b7eaf	0.19872545
163	0x3d32fa47	0.043695714
164	0x3df79a71	0.12090004
165	0xbdc4093d	-0.095720746
166	0x3dd22878	0.10261625
167	0xbd0d751f	-0.034535524
168	0x3d49160d	0.049093295
169	0xbde54aad	-0.11195884
170	0x3e5172e1	0.20453979
171	0xbe537d42	-0.20653251
172	0xbddf036b	-0.10889324
173	0xbdba7d62	-0.09105946
174	0xbc209389	-0.0098008
175	0x3d310d6c	0.04322569
176	0x3de7f666	0.11326294
177	0x3cbd417b	0.023102513
178	0xbcd69b12	-0.02619699
179	0x3bd7176d	0.006564072
180	0x3e32a772	0.17446688
181	0x3c89ad9c	0.016806416
182	0xbcf024b3	-0.029314375
183	0x3ddd4cf0	0.1080569
184	0xbd7204c9	-0.059086595
185	0x3e42a88d	0.1900961
186	0xbd58e280	-0.052950382
187	0xbe2defcd	-0.16986008
188	0x3de45b83	0.11150267
189	0xbd9408ec	-0.07228264
190	0xbe1054ab	-0.14094798
191	0x3d883048	0.06649834
192	0x3e1f0d5f	0.15532444
193	0x3d16b267	0.03679123
194	0x3c126ffc	0.008937832
195	0xbc1915e1	-0.009343595
196	0x3bc1feb6	0.0059202565
197	0xbdb5541c	-0.08853933
198	0x3dea264d	0.114330865
199	0x3da1634e	0.07880269
200	0xbd51e598	-0.05124435
201	0x3dc50d33	0.09621658
202	0xbd8951c0	-0.06705046
203	0xbe306f15	-0.17229874
204	0x3df7bb62	0.12096287
205	0x3d11e917	0.035622682
206	0xbd827cee	-0.06371485
207	0x3cdc61d1	0.026902111
208	0x3def159d	0.11674044
209	0xbe116630	-0.14199138
210	0xbe53eacb	-0.20695035
211	0xbdb0eabf	-0.08638524
212	0xbd4125d4	-0.047155216
213	0xbd263c9f	-0.040585157
214	0xbdd4a844	-0.103836566
215	0x3cdb58b0	0.026775688
216	0xbe0619dd	-0.13095804
217	0x3d825900	0.06364632
218	0xbda8db8f	-0.082450025
219	0xbd38cc97	-0.045116987
220	0x3d384c81	0.044994835
221	0x3d657957	0.05602392
222	0xbd8c5d6d	-0.06853757
223	0x3e05711a	0.13031426
224	0xbcfc5c8d	-0.03080585
225	0x3dd12136	0.102114126
226	0x3e2f6204	0.17127234
227	0x3e437d2c	0.19090718
228	0xbdc4edea	-0.09615691
229	0x3e2afada	0.16697255
230	0x3c9dd9ee	0.019268956
231	0x3dc48fac	0.09597716
232	0xbc19ce8f	-0.009387626
233	0xbd5399e4	-0.051660433
234	0xbdb49bcf	-0.08818781
235	0x3c1b852e	0.009492202
236	0xbdd6e332	-0.10492553
237	0xbe2bc218	-0.1677326
238	0x3c918baa	0.017766792
239	0x3e5eda5c	0.21762985
240	0xbd31368e	-0.043264918
241	0xbb093905	-0.0020938527
242	0x3e432495	0.19056924
243	0x3e0df9e2	0.13864854
244	0x3cf4efd8	0.029899523
245	0x3e42c7d7	0.19021545
246	0xbd008a7f	-0.03138208
247	0x3e4121a8	0.18860495
248	0xbe3d5608	-0.1848985
249	0x3dd4b6ec	0.10386452
250	0xbdbb0fef	-0.091338985
251	0x3e2a2146	0.16614255
252	0xbde2f412	-0.11081709
253	0xbe60a911	-0.21939494
254	0x3df51b0c	0.119680494
255	0xbe5d2c3f	-0.2159891

bias f4 [16]
0	0xbdd97096	-0.10617177
1	0x3d6c58fb	0.057702046
2	0x3e01eb13	0.1268733
3	0x3db39085	0.08767799
4	0x3e09c888	0.13455403
5	0x3c9116a2	0.017710987
6	0xbd88058d	-0.06641684
7	0x3e01f4c9	0.12691034
8	0xbe446317	-0.19178425
9	0xbb552247	-0.0032521652
10	0x3de168db	0.11006328
11	0xbd83a8b0	-0.06428659
12	0x3e0f4f48	0.13995087
13	0x3e113b55	0.1418279
14	0x3d182e9c	0.037153825
15	0x3d853dc7	0.06505924

weight f4 [16, 16, 3, 3]
0	0x3c8d5357	0.017251654
1	0x3d5b0b40	0.053477526
2	0xbd106f3f	-0.035262343
3	0x3bca44d1	0.0061727543
4	0x3d41fa2a	0.047357716
5	0x3deb6e4b	0.11495646
6	0x3d067a5a	0.032831527
7	0x3d476e08	0.04868892
8	0xbcabd1e7	-0.020974113
9	0x3d387d59	0.045041416
10	0xbd6767ab	-0.05649535
11	0xbc0556ab	-0.008138339
12	0x3c8de741	0.017322185
13	0x3d4467b4	0.04795046
14	0x3d2f6d5b	0.0428289
15	0xbd842ffe	-0.06454466
16	0x3c92c692	0.017916951
17	0x3c7551d5	0.014973124
18	0xbd6c8862	-0.057747252
19	0xbdc392a1	-0.095494516
20	0xbd739873	-0.05947156
21	0xbb5311f1	-0.0032206739
22	0x3d913a8b	0.07091244
23	0x3c9c88df	0.019108234
24	0xbd9bb7f9	-0.076034494
25	0x3d2f6efd	0.042830456
26	0x3d0e0238	0.034670085
27	0x3d74433c	0.059634432
28	0x3c8de50b	0.01732113
29	0x3d6bb9d0	0.05755025
30	0xbc715071	-0.014728651
31	0xbda8a32b	-0.08234247
32	0x3d334710	0.043768942
33	0xbb447271	-0.002997544
34	0x3d5264a4	0.05136551
35	0xbc513677	-0.012769333
36	0xbcc7cf8a	-0.024390955
37	0x3cbc0c06	0.022954952
38	0x3d4d62d8	0.050143093
39	0x3d86da67	0.06584626
40	0x3d014a94	0.031565264
41	0x3b5b8f8d	0.003350231
42	0xbca51764	-0.020152755
43	0xbd5e6920	-0.054299474
44	0xbd75850f	-0.059941348
45	0x3d5bce84	0.053663746
46	0x3b9f5314	0.0048621986
47	0x3cfbdfc7	0.030746354
48	0x3cc59ab9	0.02412163
49	0x3c4637ef	0.012098297
50	0xbb25725d	-0.0025245168
51	0x3c33be10	0.010970607
52	0x3bacf5ff	0.0052783485
53	0xbd91a088	-0.07110697
54	0x3d00967e	0.03139352
55	0x3d2df732	0.042472072
56	0x3d8479f9	0.06468577
57	0x3d85dde7	0.06536465
58	0xbd4dadbc	-0.050214514
59	0xbd4e6a5e	-0.05039441
60	0xbc69dc13	-0.014273661
61	0xbd7a17aa	-0.061057724
62	0xbd40165d	-0.046896327
63	0xbc94d0e6	-0.018166017
64	0x3d086402	0.0332985
65	0x3cee1867	0.02906437
66	0xbc103722	-0.008802207
67	0x3bfb721d	0.0076735155
68	0xbd4e3e36	-0.050352298
69	0x3d5011fa	0.050798394
70	0xbd16ff3c	-0.036864504
71	0xbd8882d0	-0.066655755
72	0xbd4059ec	-0.046960756
73	0xbdbfdb67	-0.093680196
74	0xbda6e896	-0.08149831
75	0x3ced46d1	0.028964432
76	0x3c0f1d51	0.008735017
77	0xbdceb3c4	-0.10092881
78	0xbcd8b30d	-0.026452566
79	0x3d3fef16	0.04685887
80	0xbc9da504	-0.019243725
81	0x3bca0c33	0.006166005
82	0xbc51b0fa	-0.012798542
83	0x3db4e63b	0.088329755
84	0x3d87afc9	0.06625325
85	0x3c95ab7c	0.018270247
86	0xbc9f1374	-0.019418456
87	0x3d9f0ff8	0.07766718
88	0xbc02b797	-0.007978342
89	0xbc440061	-0.011962981
90	0x3bfd86e3	0.007737027
91	0x3da63d61	0.08117176
92	0xbb0a8ee8	-0.0021142308
93	0x3d364ca0	0.04450667
94	0xbb0393cc	-0.0020077107
95	0x3c32801d	0.010894802
96	0x3a6c6644	0.00090179243
97	0x3dd89b9a	0.10576554
98	0xbc0dfb60	-0.0086658895
99	0x3d88f19b	0.066867076
100	0x3a0068e6	0.00048984436
101	0x3d417e11	0.047239367
102	0xbaa6e8e1	-0.0012734198
103	0xbe2edffb	-0.1707763
104	0xbc7f3143	-0.01557571
105	0xbdd5e8f8	-0.10444826
106	0xbdc0cd8a	-0.094142035
107	0xbb1b0a9d	-0.002365745
108	0xbc897a7e	-0.016782042
109	0x3d004849	0.031318936
110	0x3cc3715a	0.023857761
111	0x3c6ee2bc	0.014580425
112	0xbd90e645	-0.070751704
113	0xbb95889c	-0.0045634042
114	0xbc19693c	-0.009363469
115	0xbd9b05f3	-0.07569494
116	0xbdb8aed3	-0.0901772
117	0x3ed2083a	0.410219
118	0x3ec9f3cf	0.39443824
119	0x3eec172f	0.46111438
120	0x3f0c8403	0.54888934
121	0x3ed577d7	0.41692993
122	0x3ef84db5	0.48496786
123	0x3ef10f50	0.47081995
124	0x3ecd0bf6	0.40048188
125	0x3ef08f00	0.469841
126	0x3d7bdbf1	0.06148905
127	0xbd3f0005	-0.046630878
128	0xbbc769d7	-0.006085615
129	0x3d90b0ad	0.07064948
130	0x3dfa33e3	0.12216928
131	0x3dc972b2	0.098363295
132	0x3d118d1c	0.035534963
133	0x3d2bbb19	0.041926477
134	0x3d75d9bf	0.060022112
135	0x3d95787d	0.07298372
136	0xbbc6035f	-0.0060428823
137	0xbc0da662	-0.008645626
138	0x3e6465ef	0.2230451
139	0x3de79508	0.11307722
140	0x3e138079	0.14404477
141	0x3d7f8139	0.062379096
142	0x3da5e8a2	0.08101012
143	0x3e295eb3	0.16540031
144	0x3db68563	0.0891216
145	0x3d2467f3	0.040138196
146	0xbd60629e	-0.05478155
147	0x3d29b2e0	0.041430354
148	0xbd1823c6	-0.03714349
149	0x3d30d6ff	0.043173786
150	0x3d327a32	0.043573566
151	0x3d1115d1	0.035421196
152	0xbc88cb66	-0.01669855
153	0xbd774516	-0.06036862
154	0x3c886f4c	0.016654633
155	0x3d150595	0.036382277
156	0xbd9594f8	-0.07303804
157	0xbdfbba66	-0.12291412
158	0xbe09a556	-0.13441977
159	0xbd1b1a69	-0.037866984
160	0xbe00962b	-0.12557285
161	0xbca36b9e	-0.019948777
162	0xbd665bdb	-0.056239944
163	0xbdbb31a0	-0.091403246
164	0x3cd2a1cf	0.025711922
165	0x3d926807	0.07148748
166	0x3dda499f	0.10658573
167	0x3d917fd0	0.071044564
168	0x3db57044	0.088593036
169	0x3cb837dc	0.022487573
170	0xbb765445	-0.003758685
171	0x3dab56eb	0.08366188
172	0x3d9ad7ef	0.07560717
173	0x3d299796	0.04140433
174	0x3cc3d531	0.023905369
175	0x3d175694	0.0369478
176	0xbd349321	-0.044085626
177	0xbd6347ba	-0.055488326
178	0xbd3a7383	-0.045520317
179	0x3c8a6e04	0.016898163
180	0x3d8359f5	0.06413642
181	0x3de97f9e	0.11401294
182	0x3dc928b1	0.098222144
183	0x3ddf7c68	0.109124005
184	0xbcc760b5	-0.024338106
185	0x3ddeb53c	0.108744115
186	0x3d9bb0c9	0.076020785
187	0xbc81fa6d	-0.015866483
188	0x3c2042f5	0.009781589
189	0x3db64898	0.08900565
190	0x3aecbf38	0.0018062359
191	0x3c5a2e8b	0.013316761
192	0x3d670c62	0.056408294
193	0x3d3a7a0d	0.045526553
194	0xbd1e805f	-0.038696643
195	0x3db68b06	0.08913235
196	0xbd5c4423	-0.053775918
197	0x3d204f11	0.039137904
198	0x3c8cef1e	0.017203864
199	0x3c4669e7	0.01211021
200	0xbe13ac73	-0.14421253
201	0xbbc142a7	-0.005897838
202	0xbd8f724d	-0.07004223
203	0x3ca6bd67	0.020353986
204	0x3b8f461d	0.004372372
205	0xbddb9c95	-0.10723225
206	0xbd63dae0	-0.055628657
207	0x3cb8c977	0.022557003
208	0x3cf9f694	0.030513085
209	0xbc12e019	-0.008964562
210	0x3badc838	0.005303409
211	0x3d7fc2ec	0.06244175
212	0x3d91f160	0.07126117
213	0x3cbdfb98	0.023191258
214	0xbccd2d1d	-0.025045926
215	0xbc1d476f	-0.009599551
216	0x3dadec54	0.08492342
217	0xbd8c1cc2	-0.068414226
218	0x3cb7ddf5	0.022444705
219	0x3d31a896	0.043373667
220	0x3d6c76f8	0.057730645
221	0x3b458b29	0.003014276
222	0xbca6531f	-0.020303307
223	0x3db5ffe8	0.08886701
224	0x3d41c3f6	0.047306024
225	0xbd151111	-0.03639323
226	0x3b6792c8	0.0035335291
227	0xbd824308	-0.063604414
228	0xbc4f29e7	-0.012644268
229	0xbe189506	-0.14900598
230	0xbcfc4259	-0.030793356
231	0xba42d0fc	-0.0007431654
232	0xbe13285f	-0.14370869
233	0xbc94f88f	-0.018184928
234	0x3da2ecdf	0.07955336
235	0x3dd735ff	0.10508346
236	0x3da62d81	0.08114148
237	0x3e07d654	0.13265353
238	0x3c2cef31	0.010555075
239	0x3d572fbe	0.052535765
240	0x3c40212a	0.011726657
241	0x3da4eecd	0.0805336
242	0xbcca1d13	-0.024672067
243	0xbd368037	-0.04455587
244	0xbe148358	-0.14503229
245	0x3d3d413c	0.04620479
246	0xbb432490	-0.0029776432
247	0xbdbb4d69	-0.09145624
248	0xbdb7458c	-0.08948812
249	0x3c63f876	0.013914218
250	0xbde692db	-0.11258479
251	0xbde7c04d	-0.11315975
252	0x3d6f8ca3	0.05848373
253	0xbb87b049	-0.004140888
254	0x3d98bb2f	0.074575774
255	0x3d9c9ca3	0.076470636

bias f4 [16]
0	0xbdb6e93d	-0.089312054
1	0x3d787be6	0.060665034
2	0x3dc35a9d	0.095387675
3	0x3c52db6a	0.012869695
4	0xba5c854c	-0.0008412197
5	0xbc484a45	-0.0122247385
6	0x3d2c3620	0.042043805
7	0x3dbba1bb	0.09161707
8	0x3d3d6d5b	0.046246868
9	0x3ba71594	0.005099008
10	0x3db1ad77	0.08675664
11	0xbd8ccfed	-0.06875596
12	0x3cf0290a	0.029316444
13	0xbdc8d59e	-0.09806369
14	0x3a49b198	0.0007694005
15	0x3d6c8292	0.05774171

weight f4 [32, 16, 3, 3]
0	0xbda5ed03	-0.08101847
1	0xb9c390fb	-0.00037301317
2	0xbdee206d	-0.116272785
3	0xbd9cfbb0	-0.07665193
4	0xbcaac6d9	-0.020846771
5	0xbd756b3d	-0.059916724
6	0x3d787383	0.060657036
7	0x3c9a6d7a	0.01885103
8	0x3cf0a0c0	0.029373527
9	0xbcfdfdf8	-0.03100489
10	0x3c8317d5	0.016002575
11	0xbd95dcbc	-0.07317492
12	0x3bad1d58	0.005283039
13	0x3dc6d059	0.09707708
14	0xb9c6c70e	-0.0003791381
15	0x3d274a40	0.040842295
16	0xbc28e123	-0.010307583
17	0xbc7a2aea	-0.015269021
18	0x3d23245b	0.039829593
19	0x3d325e37	0.04354688
20	0x3dd1ebe8	0.10250074
21	0x3d42651b	0.047459703
22	0xbc9e056f	-0.0192897
23	0x3d6d6301	0.057955746
24	0x3d288f05	0.04115202
25	0xbc02c130	-0.00798063
26	0x3ce74739	0.028232204
27	0x3d3e0f04	0.04640104
28	0x3d0eaa64	0.034830466
29	0x3dc865e5	0.0978506
30	0xbd04e209	-0.032442126
31	0x3cdffe2e	0.027342882
32	0x3d416ba0	0.04722178
33	0xbd541d80	-0.051785946
34	0x3d74d418	0.05977258
35	0x3c85ef10	0.016349345
36	0xbc5da1df	-0.013527363
37	0x3cc14c49	0.023595946
38	0x3cceeabe	0.025258418
39	0xbd1d3ef0	-0.0383901
40	0xbc50a8fe	-0.012735603
41	0x3cc969cd	0.024586583
42	0xbe1d3a02	-0.1535416
43	0xbda26b03	-0.07930567
44	0xbd12fde9	-0.03588668
45	0xbd834f49	-0.06411607
46	0xbd693079	-0.056930993
47	0x3d969b26	0.07353811
48	0xbdf670aa	-0.12033208
49	0xbc9e1363	-0.019296354
50	0xbd4c5383	-0.04988433
51	0xbdc6fbff	-0.09716033
52	0xbdd73e40	-0.1050992
53	0x3c75207a	0.014961356
54	0x3dbc8825	0.09205655
55	0xbd424269	-0.047426615
56	0xbda1c0cd	-0.07898102
57	0xbd0f4b75	-0.03498407
58	0xbc801797	-0.015636249
59	0x3d3810a6	0.044937752
60	0x3dfa7643	0.12229588
61	0x3d9d63f1	0.07685078
62	0xbd22985c	-0.039696082
63	0x3cbeba88	0.023282304
64	0x3cda9580	0.026682615
65	0xbbba7229	-0.0056898785
66	0xbd959863	-0.07304456
67	0xbd29d973	-0.04146714
68	0xbd681ce3	-0.056668174
69	0xbdb0cb7f	-0.08632564
70	0x3c0d88f3	0.008638608
71	0x3d0581b0	0.032594383
72	0x3d849e7a	0.064755395
73	0x3e31bcad	0.1735713
74	0x3de47712	0.11155523
75	0x3dc8525b	0.09781333
76	0x3e001c17	0.12510715
77	0x3dbd105e	0.092316374
78	0xba825ffe	-0.0009946821
79	0x3dbd1e04	0.09234241
80	0x3d9e2088	0.077210486
81	0xbd8b7c98	-0.06810874
82	0xbd187919	-0.037224863
83	0xbd811e18	-0.06304568
84	0xbc76ec46	-0.01507098
85	0xbdb11338	-0.08646244
86	0x3bc753f0	0.006083004
87	0xbce11355	-0.027475039
88	0x3d99673a	0.07490392
89	0xbc9b8929	-0.018986301
90	0x3d0e01e9	0.03466979
91	0x3c9dc600	0.019259453
92	0x3cf0b508	0.029383197
93	0xbb732217	-0.0037099177
94	0xbcecd7d6	-0.028911512
95	0xbd17d0c7	-0.03706434
96	0x3cc7d88b	0.024395248
97	0x3c2f6bab	0.010706822
98	0x3d967253	0.07346024
99	0x3d9410a1	0.07229734
100	0x3d91612f	0.070986144
101	0xbd5b93a6	-0.053607605
102	0x3d6af1d1	0.05735952
103	0x3d4b120d	0.04957776
104	0x3c7760bb	0.015098746
105	0xbd65cf26	-0.056105755
106	0xbcb29c72	-0.021803115
107	0xbc965114	-0.018349208
108	0x3d8e1a3e	0.06938599
109	0x3cc607b3	0.024173593
110	0xbdab0be9	-0.08351881
111	0x3dbaa99d	0.091143824
112	0x3d345900	0.04403019
113	0x3d927ed4	0.07153097
114	0xbca08c11	-0.019598039
115	0xbc4fcc6a	-0.012683013
116	0x3da9e27d	0.08295152
117	0x3d5cca56	0.0539039
118	0xbdd48661	-0.10377193
119	0xbde169c5	-0.11006502
120	0x3e0bf43a	0.13667384
121	0xbd4e5ef3	-0.05038352
122	0xbdcc1d07	-0.09966474
123	0x3d814c17	0.06313341
124	0x3cb5c129	0.022186833
125	0xbd91c8ae	-0.07118355
126	0x3e06058d	0.13088055
127	0x3d90bb07	0.07066923
128	0x3d75fdb9	0.060056422
129	0x3dd4bd78	0.10387701
130	0x3dc4fb6c	0.096182674
131	0x3d51fd73	0.0512671
132	0x3ded5e55	0.11590258
133	0x3d03239c	0.03201638
134	0x3dbd60ba	0.09246965
135	0x3dd91c2f	0.10601079
136	0xbce0dad9	-0.027448105
137	0x3848a332	4.7835703e-05
138	0x3cd1619f	0.025559245
139	0xbd343b30	-0.044001758
140	0x3d89ccdc	0.06728527
141	0xbcd35d33	-0.025801277
142	0x3d2d046c	0.042240545
143	0x3db219f0	0.086963534
144	0xbd2d1aea	-0.042261995
145	0xbd250296	-0.04028567
146	0x3c309ce8	0.010779597
147	0xbcc5b7a8	-0.024135426
148	0x3c4bf956	0.012449583
149	0xb9fe9a67	-0.00048561694
150	0xbda45e42	-0.08025791
151	0xbcb5789b	-0.022152236
152	0xbe0bd4b4	-0.13655359
153	0xbd86a3bb	-0.06574198
154	0xbd0dbeb8	-0.03460571
155	0xbda7800d	-0.081787206
156	0xbd61acf4	-0.05509658
157	0x3d7adac9	0.061243806
158	0xbdaf49f8	-0.0855903
159	0xbb90d36a	-0.004419734
160	0x3d232610	0.03983122
161	0xbd88f486	-0.06687264
162	0x3d8caa41	0.06868411
163	0x3c61c76c	0.013780456
164	0xb9042eda	-0.00012605955
165	0x3ab199fd	0.001354992
166	0x3c732b96	0.014841935
167	0xbd98e9a4	-0.074664384
168	0x3da09db6	0.07842581
169	0x3d545bf8	0.05184552
170	0x3d93ebfd	0.072227456
171	0xbde34382	-0.110968605
172	0x3cb93e18	0.022612616
173	0xbd8bf466	-0.06833725
174	0x3d47d6e0	0.048788905
175	0xbd172f0d	-0.036910105
176	0xbd238ec9	-0.039931092
177	0xbdb01cca	-0.08599241
178	0x3d36d5cf	0.044637498
179	0xbdce8508	-0.100839674
180	0x3d86601f	0.065613024
181	0x3d5c2631	0.05374736
182	0x3be71c59	0.00705294
183	0x3d175618	0.03694734
184	0xbcedfc9b	-0.029051116
185	0x3d4e76d6	0.0504063
186	0x3c1a3612	0.009412305
187	0xbd8924d8	-0.066964805
188	0xbd0e0954	-0.034676865
189	0xbd46aebe	-0.04850649
190	0xbdc02208	-0.09381491
191	0xba1e0391	-0.0006027753
192	0x3a8869d8	0.001040752
193	0x3d66f2fb	0.056384068
194	0xbced25b6	-0.028948646
195	0x3d24a925	0.04020037
196	0x3d15e3e5	0.03659429
197	0x3d0c2709	0.034216914
198	0xbd5bfc4d	-0.05370741
199	0x3d67c1e5	0.056581397
200	0xbdb3a7d5	-0.08772246
201	0x3c8e7d28	0.017393664
202	0xbbbdb441	-0.00578931
203	0xbdc9ad22	-0.098474756
204	0xbd7fd081	-0.062454704
205	0xbda83901	-0.08213998
206	0xbd7896d8	-0.06069073
207	0xbca659ed	-0.020306552
208	0xbd9496cf	-0.07255327
209	0xbd64c0bf	-0.05584788
210	0x3d9d3a5e	0.07677148
211	0x3d0fefca	0.03514079
212	0xbc8311b0	-0.015999645
213	0x3b1cdc64	0.0023935074
214	0xbd0c9944	-0.034325853
215	0xbd44f810	-0.048088133
216	0x3da5a387	0.08087831
217	0x3d0b5a3e	0.03402161
218	0xbdc55390	-0.09635079
219	0xbda1a516	-0.07892816
220	0x3d5de8c5	0.054177064
221	0xbde9be65	-0.11413268
222	0xbd8efc35	-0.069816984
223	0xbd3c7c73	-0.04601712
224	0xbdde2ee0	-0.108487844
225	0x3db03268	0.08603364
226	0xbd9d2adb	-0.0767419
227	0x3ccbd4d2	0.024881754
228	0x3d413b0f	0.047175463
229	0xbd4b71b2	-0.049668975
230	0xbdb57df0	-0.08861911
231	0x3d6f7546	0.05846145
232	0xbd94089b	-0.07228204
233	0xbc5eb428	-0.013592757
234	0xbcf33b9f	-0.029691515
235	0xbd4b006b	-0.049560945
236	0x3c12611d	0.008934286
237	0xbc842077	-0.016128762
238	0x3c8e9432	0.01740465
239	0x3cc17f4c	0.02362027
240	0xbd202c5b	-0.0391048
241	0xbd4bb624	-0.04973425
242	0x3d994ed8	0.074857414
243	0x3cd5f735	0.026118854
244	0xbdb96698	-0.09052771
245	0xbdc14798	-0.094374835
246	0x3d226b3c	0.039653048
247	0xbd5a296f	-0.05326217
248	0xbdc36ea1	-0.09542585
249	0xbd7470eb	-0.059678
250	0xbce3cf28	-0.02780874
251	0xbce270e5	-0.027641723
252	0x3d9540a9	0.072877236
253	0xbdb3c06c	-0.08776936
254	0xbdc7209c	-0.097230166
255	0xbc311bc0	-0.010809839

bias f4 [32]
0	0xbdb70069	-0.08935625
1	0x3db6da18	0.08928317
2	0xbd38e899	-0.045143697
3	0xbd3db20b	-0.046312373
4	0x3db039d3	0.08604779
5	0xbcc32aad	-0.02382406
6	0x3c2ff04e	0.010738445
7	0x3c23896b	0.009981493
8	0x3a919a27	0.0011108563
9	0x3d53795d	0.051629413
10	0x3da649af	0.08119523
11	0xbdc91b7a	-0.09819694
12	0xbdf37468	-0.11887437
13	0x3c13bbc9	0.009016939
14	0xbc870f79	-0.01648687
15	0xbd88943b	-0.06668898
16	0xbd22f950	-0.039788544
17	0xbddfe2e7	-0.1093195
18	0x3cd4581e	0.025920924
19	0xbdf41df2	-0.11919774
20	0xbdba9904	-0.09111217
21	0xbd37c13a	-0.04486201
22	0xbd8177ca	-0.06321676
23	0xbddd9751	-0.10819877
24	0xbd7e3833	-0.062065315
25	0xbda87cfc	-0.08226964
26	0x3d9694a7	0.07352572
27	0xbc9619a7	-0.018322779
28	0xbd50c047	-0.05096462
29	0xbc4f891b	-0.012666966
30	0x3d73affc	0.059494004
31	0x3cfb8193	0.030701434

weight f4 [32, 32, 3, 3]
0	0xbdaf5375	-0.0856084
1	0xbd8d1306	-0.06888394
2	0x3d102b07	0.035197284
3	0xbdcfefe6	-0.10153179
4	0xbc2bd934	-0.010488797
5	0x3c5f3c03	0.013625148
6	0xbda666f1	-0.08125103
7	0xbd8c9622	-0.06864573
8	0xbca4ba48	-0.020108357
9	0x3d05c57c	0.03265904
10	0xbdae8e07	-0.08523183
11	0xbd444cd8	-0.047924846
12	0xbc0eae72	-0.008708583
13	0xbdaee6b7	-0.08540099
14	0xbd31b7e8	-0.043388277
15	0xbd790972	-0.060800023
16	0xbd8db63b	-0.06919523
17	0xbc97a113	-0.018509423
18	0x3d6d05c8	0.05786684
19	0x3d5c2e28	0.053754956
20	0xbbe4bf6f	-0.0069808285
21	0xbd0061ab	-0.031343143
22	0x3c8b1c88	0.016981378
23	0xbd579019	-0.052627657
24	0x3d11a500	0.035557747
25	0x3d09d556	0.03365072
26	0xbd4ececf	-0.050490197
27	0xbcd33ab0	-0.02578482
28	0xbccef024	-0.025260992
29	0x3d10f37b	0.03538845
30	0x3cd35909	0.025799291
31	0x3b6c47b8	0.003605349
32	0x3d4a2690	0.049353182
33	0xbd2660bc	-0.040619597
34	0x3cb95202	0.022622112
35	0xbb917324	-0.0044387747
36	0xbdb6560c	-0.08903131
37	0xbd56ef7d	-0.052474488
38	0xbc2b65d2	-0.010461288
39	0xbbde9f73	-0.00679391
40	0xbc09afc1	-0.008403719
41	0xbca7a6e3	-0.02046532
42	0xbd8cc04a	-0.06872614
43	0x3bc8b620	0.0061252266
44	0x3d04d4a3	0.03242935
45	0x3c959dbf	0.018263696
46	0xbd21a671	-0.03946537
47	0xbbc56409	-0.006023888
48	0x3d3f33ed	0.04668038
49	0xbc8fbc15	-0.01754574
50	0x3d32562a	0.043539204
51	0xbcadb49b	-0.021204283
52	0xbd6adcfd	-0.057339657
53	0x3c666f66	0.014064645
54	0x3c361e43	0.011115613
55	0x3d2ffb97	0.042964544
56	0xbcc73449	-0.024316924
57	0xbd3115c8	-0.043233663
58	0x3d19ebf1	0.037578527
59	0x3d00190a	0.03127388
60	0xbcb6f025	-0.022331307
61	0xbd0bf989	-0.034173522
62	0xbcbe058c	-0.023196004
63	0xbc280be4	-0.010256741
64	0xbd2f8dfc	-0.042860016
65	0x3d32eaf9	0.04368112
66	0x3c57cd12	0.013171451
67	0xbd86b811	-0.06578077
68	0xbb46e240	-0.0030347258
69	0x3c18f956	0.00933679
70	0x3d3df954	0.046380356
71	0xbbacf3b0	-0.0052780733
72	0xbc9c9fd7	-0.019119186
73	0x3da385b8	0.07984489
74	0xbaeed367	-0.0018220962
75	0xbd468a1f	-0.048471566
76	0x3db954e2	0.09049393
77	0x3dafa701	0.08576775
78	0x39fac379	0.00047829354
79	0x3c0cce36	0.008594086
80	0x3d83a124	0.064272195
81	0xbdd95957	-0.10612743
82	0xbd7e4ce0	-0.062085032
83	0x3c3639b2	0.011122154
84	0xbdd127b4	-0.10212651
85	0xbd753466	-0.059864424
86	0x3cb6b80f	0.022304563
87	0xbda7e87c	-0.0819864
88	0x3babef00	0.005246997
89	0x3c1a1d7c	0.009406444
90	0x3c514984	0.012773875
91	0x3cc969a1	0.0245865
92	0x3cdce32a	0.026963789
93	0x3da1c224	0.078983575
94	0x3cd326e3	0.025775379
95	0xbd291bdd	-0.041286338
96	0xbcd67f9c	-0.026183896
97	0xbd0229e2	-0.031778224
98	0x3bab849a	0.005234313
99	0xbd789535	-0.06068917
100	0xbd53c05c	-0.05169712
101	0xbcb0b485	-0.021570453
102	0xbd325302	-0.043536194
103	0xba209dd5	-0.00061270344
104	0xbd844fdf	-0.06460547
105	0xbd3d717e	-0.046250813
106	0x3d188c28	0.03724304
107	0x3bbf51b6	0.005838598
108	0x3d8f9552	0.070109025
109	0xbc99929c	-0.018746667
110	0xbc8889eb	-0.016667327
111	0xbdee514e	-0.116366014
112	0x3cbacd46	0.02280296
113	0x3dd7f1cb	0.10544165
114	0xbd9ad28f	-0.07559692
115	0xbaaaf9c2	-0.0013044404
116	0x3da68a97	0.08131903
117	0xbc7cce49	-0.015430042
118	0x3c11a921	0.008890421
119	0x3d0d9390	0.034564555
120	0x3d529b0e	0.051417403
121	0x3d2201a4	0.039552346
122	0xbb80375a	-0.0039128484
123	0xbc29b85e	-0.010358898
124	0x3b5fda58	0.0034157243
125	0xbd2e2b86	-0.042521976
126	0x3d3743a6	0.04474225
127	0x3da1d2b3	0.07901516
128	0x3d8ef43d	0.069801785
129	0x3ddfdf41	0.10931254
130	0x3cd8bfdc	0.026458673
131	0x3d115bcb	0.03548793
132	0xbc9fcd64	-0.019507118
133	0x3c4b728d	0.012417448
134	0xbce03a15	-0.027371446
135	0x3d2abfc2	0.04168678
136	0xbd3a43b0	-0.045474708
137	0xbd0aa85f	-0.033851977
138	0xbd8c56cc	-0.06852493
139	0x3d4a062e	0.0493223
140	0xbc8b0c04	-0.016973503
141	0xbc74d7f8	-0.014944069
142	0x3c7b8b69	0.015353062
143	0xbcf809b4	-0.030278064
144	0xbe4abbdf	-0.1979823
145	0xbe195083	-0.14972119
146	0xbd973063	-0.07382276
147	0xbd852aa0	-0.06502271
148	0xbd31a8ff	-0.043374058
149	0xbc9d1739	-0.019176112
150	0xbe01905d	-0.12652726
151	0xbd2e70a5	-0.042587895
152	0xbc194e40	-0.009357035
153	0xbc8299de	-0.01594251
154	0xbdb3314d	-0.08749638
155	0xbc9682c3	-0.018372899
156	0xbd0b8157	-0.034058895
157	0xbdb27b60	-0.08714938
158	0xb90c8632	-0.00013401432
159	0xbdb7e4fc	-0.08979222
160	0xbdbf588e	-0.09343062
161	0xbd1899c8	-0.037256032
162	0xbe054eca	-0.13018337
163	0xbd03b0ed	-0.03215115
164	0x3c33c82c	0.010973018
165	0xbde7bb82	-0.11315061
166	0x3c3fdb28	0.011709966
167	0xbccc333a	-0.02492677
168	0xbd4a6dc7	-0.049421098
169	0xbc310ecc	-0.0108067505
170	0xbd4faded	-0.050702978
171	0x3e684c23	0.22685294
172	0x3d7211eb	0.05909912
173	0xbd3144e9	-0.04327861
174	0x3e014765	0.12624891
175	0x3c93a34a	0.018022198
176	0xbe0342e0	-0.1281848
177	0x3cf13d14	0.02944807
178	0xbd02f885	-0.031975288
179	0xbdc6f2b6	-0.09714262
180	0x3dedb326	0.116064355
181	0x3e341923	0.17587714
182	0x3d417f0c	0.047240302
183	0xbd171b4b	-0.036891263
184	0x3dc6f165	0.09714011
185	0x3d5ad680	0.05342722
186	0xbc2bec53	-0.010493356
187	0x3d8c9ed2	0.0686623
188	0xbdd450ba	-0.1036696
189	0xbb8a18ef	-0.004214398
190	0x3e382445	0.17982586
191	0x3e0f077a	0.13967696
192	0xbd26d0d2	-0.04072649
193	0x3c7e8546	0.015534705
194	0x3dfae2be	0.12250279
195	0xbdcaf357	-0.09909695
196	0x3c2b9ab4	0.010473896
197	0x3da9066d	0.08253179
198	0xbc133435	-0.008984615
199	0x3d40e721	0.04709542
200	0x3d2aafce	0.041671567
201	0x3c12de84	0.008964185
202	0xbd31c1f9	-0.043397877
203	0xbc68e52e	-0.014214797
204	0x3d8703f8	0.06592554
205	0x3b1b2769	0.0023674613
206	0x3d451cca	0.04812316
207	0x3da675f5	0.08127967
208	0xbaba7eca	-0.001422846
209	0xbd587e5e	-0.05285489
210	0x3d4a1d9b	0.04934464
211	0x3d7e373f	0.062064406
212	0xbc926b9e	-0.017873581
213	0x3cd50a1d	0.026005799
214	0xbd1d0aa7	-0.038340237
215	0xbd4898ba	-0.048973776
216	0xbb96488d	-0.0045862854
217	0xbb1bca5b	-0.0023771736
218	0x3ccb7299	0.024834918
219	0x3be5dc64	0.007014798
220	0x3d4ea7ca	0.050452985
221	0xbd723991	-0.05913693
222	0xbd361270	-0.044451177
223	0xbc86a906	-0.016438019
224	0xbd688158	-0.056763977
225	0xbc9579c3	-0.018246537
226	0x3da4597a	0.08024879
227	0x3d4dd4b3	0.050251674
228	0x3ce382e9	0.027772384
229	0x3d8de2c0	0.06928015
230	0x3d313e26	0.04327216
231	0xbbeb975c	-0.0071896743
232	0x3d38c9f6	0.04511448
233	0x3d929174	0.07156649
234	0x3d8d988b	0.06913861
235	0x3d8ba908	0.068193495
236	0xbcaf9041	-0.02143109
237	0x3d90c674	0.07069102
238	0x3e229613	0.15877561
239	0x3d00231b	0.03128348
240	0x3e0fa96c	0.14029473
241	0x3dd14506	0.10218243
242	0x3992fd2f	0.00028035927
243	0x3d387c11	0.045040194
244	0x3c705d78	0.014670722
245	0x3d847a2c	0.06468615
246	0xbc0c9243	-0.008579793
247	0xbc4307ea	-0.011903742
248	0x3d386807	0.045021083
249	0xbd11b5f4	-0.035573915
250	0xbcbf48ec	-0.023350202
251	0x3d8991d2	0.06717266
252	0x3c4812cf	0.012211516
253	0x3ca1d054	0.019752659
254	0xbd6d93e3	-0.058002364
255	0xbd23f79b	-0.040031057

bias f4 [32]
0	0xbd701fc2	-0.058624037
1	0xbc845ece	-0.016158488
2	0x3c9b607e	0.01896691
3	0xbb60ad5d	-0.003428302
4	0x3d7e6d70	0.062116086
5	0xbd36bd64	-0.04461421
6	0xbc6f4715	-0.01460435
7	0x3c93c271	0.018037053
8	0x3c1287b0	0.008943483
9	0x3cb278b3	0.02178607
10	0x3ce394f4	0.027780987
11	0x3d0a882f	0.03382128
12	0xbbb50f0b	-0.005525475
13	0xbc86c671	-0.016452046
14	0x3c2f8449	0.010712692
15	0xbd8b5dcf	-0.06805002
16	0xbd55736a	-0.05211202
17	0x3bde9154	0.006792227
18	0xbd90fcb9	-0.07079453
19	0x3d444de2	0.047925837
20	0xbaee6657	-0.0018188459
21	0xbd0da861	-0.034584407
22	0xbc771f16	-0.015083095
23	0x3c229ca9	0.009925046
24	0xbcf8c85f	-0.030368982
25	0x3caaf018	0.020866439
26	0x3d7b9d10	0.061429083
27	0xbc478b4f	-0.01217921
28	0xbbc602f8	-0.0060428344
29	0xbc7c351d	-0.015393523
30	0x3ca05e78	0.019576296
31	0xbd0aef87	-0.033919837

weight f4 [64, 32, 3, 3]
0	0xbd9e1c9d	-0.07720301
1	0xbdb61a37	-0.08891719
2	0xbe35414b	-0.17700689
3	0xbdca9a35	-0.09892694
4	0xbd879b45	-0.06621412
5	0xbdfc4a73	-0.123188876
6	0xbd9f568d	-0.0778018
7	0xbdd95c0b	-0.10613259
8	0x3c9a9dd5	0.018874088
9	0x3db32682	0.08747579
10	0xbd19307b	-0.03739975
11	0xbdefe74b	-0.117140375
12	0xbca6c5f0	-0.020358056
13	0xbc9ecd9c	-0.019385152
14	0xbdf37abb	-0.11888643
15	0x3d808a12	0.06276335
16	0xbd5b6c47	-0.05357006
17	0xbd5e19a9	-0.05422369
18	0xbd5358a5	-0.05159821
19	0xbb546aa8	-0.0032412205
20	0x3cc73bc2	0.024320487
21	0x3c618f76	0.013767114
22	0x3d07de20	0.03317082
23	0x3d5e3096	0.054245554
24	0x3cff036f	0.031129567
25	0x3d0f8bbf	0.03504538
26	0x3c0e4b97	0.008685014
27	0xbdcb76dd	-0.09934781
28	0xbe105b80	-0.14097404
29	0xbd802589	-0.06257159
30	0xbdc6b083	-0.09701636
31	0xbdce9250	-0.10086501
32	0xbde389b3	-0.111102484
33	0xbdd58c8a	-0.10427196
34	0xbe054313	-0.13013868
35	0xbd6653ce	-0.056232266
36	0x3c2033fa	0.009778017
37	0xbd23498a	-0.039865054
38	0xbd621de1	-0.055204276
39	0xbd3b92fa	-0.045794465
40	0x3a2840b8	0.0006418335
41	0x3c652672	0.013986217
42	0x3cc0ceba	0.023536075
43	0x3c5c9238	0.013462596
44	0xbba088a0	-0.0048990995
45	0x3e1bce68	0.15215456
46	0xbd122cfd	-0.035687435
47	0xbd841581	-0.06449414
48	0x3cf84b7d	0.030309433
49	0xbda2c5c3	-0.07947876
50	0xbc1dc751	-0.00963004
51	0xbd364ca1	-0.044506673
52	0x3a850d84	0.0010151123
53	0x3aa3af6a	0.001248819
54	0xbdbd6b41	-0.09248973
55	0xbd831d47	-0.064020686
56	0xbb5aab84	-0.0033366391
57	0xbc61a287	-0.01377166
58	0xbca6099b	-0.020268252
59	0xbc862a22	-0.016377512
60	0xbd04985e	-0.03237187
61	0xbda2afaa	-0.079436615
62	0xbd59b6fd	-0.053153027
63	0xbd962e2a	-0.07333024
64	0xbd64f338	-0.055896014
65	0xbd26af12	-0.040694304
66	0xbc9b0ea7	-0.018927885
67	0xbd3d519e	-0.046220414
68	0xbc4772b2	-0.012173342
69	0x3d1b7f71	0.037963334
70	0xbccb4f18	-0.024817988
71	0xbcd58da3	-0.026068514
72	0xbcfe9078	-0.031074747
73	0xbd5d74c4	-0.054066435
74	0xbd2cc5bd	-0.042180765
75	0xbd03a3c4	-0.0321386
76	0x3ce25192	0.027626786
77	0xbd8344b5	-0.06409589
78	0xbce5e8e7	-0.028065158
79	0xbd209fd0	-0.03921491
80	0xbd9e5408	-0.077308714
81	0x3d2892a0	0.041155457
82	0xbe1dee88	-0.15423024
83	0xbe314603	-0.17311864
84	0xbce6fc32	-0.028196428
85	0xbe1534ad	-0.14570875
86	0xbd80a89d	-0.062821604
87	0xbde67a52	-0.112537995
88	0xbdba62ca	-0.09100874
89	0xbe0cbd1b	-0.13744013
90	0xbc8adb8d	-0.016950393
91	0x3cd2b16d	0.025719369
92	0x3d879d79	0.066218324
93	0xbdb067df	-0.08613562
94	0xbce58faa	-0.028022606
95	0x3cb0a735	0.021564106
96	0xbd2d4c6e	-0.042309217
97	0x3d0286e4	0.031866923
98	0x3d7bd395	0.061481077
99	0xbdbd72a3	-0.09250381
100	0x3d2ad72a	0.041709103
101	0x3da37a29	0.079822846
102	0xbd921358	-0.07132596
103	0x3a02408a	0.00049687235
104	0xbca6a19c	-0.020340733
105	0xbda8ba4f	-0.082386605
106	0xbdacd1f3	-0.08438482
107	0x3c5623df	0.013070076
108	0x3c248dbc	0.010043558
109	0xbcbe56b9	-0.023234712
110	0xbd2135a1	-0.039357785
111	0x3cd4b238	0.025963888
112	0xbcf08595	-0.029360572
113	0xbd13f8c4	-0.036125913
114	0x3e029986	0.12753877
115	0xbd208cce	-0.03919678
116	0xbda65d54	-0.0812327
117	0xbd86d5e6	-0.06583767
118	0xbce25901	-0.027630331
119	0xbd5e68c9	-0.05429915
120	0xbd498276	-0.049196683
121	0xbd31ff08	-0.043456107
122	0xbd275c10	-0.040859282
123	0x3d4d5789	0.05013231
124	0xbc6c699e	-0.014429478
125	0xbd76129e	-0.06007635
126	0xbb6b3031	-0.0035886879
127	0xbd2942a9	-0.041323338
128	0x3cc66209	0.024216669
129	0xbdb2af8e	-0.08724891
130	0xbd875a3b	-0.06609007
131	0xbbb6f613	-0.0055835336
132	0xbdebd130	-0.11514509
133	0x3ab04e95	0.0013451154
134	0xbc03c047	-0.008041448
135	0x3c252c13	0.010081309
136	0xbc90ed90	-0.017691404
137	0x3cb0af16	0.021567862
138	0xbc2eeabb	-0.010676081
139	0xbcdf97b6	-0.027294021
140	0xbd5f5517	-0.054524507
141	0x39adda25	0.00033159662
142	0xbd8e9949	-0.069628306
143	0x3cfe440a	0.031038303
144	0xbcd56c26	-0.026052546
145	0xbd722447	-0.059116628
146	0xbcc32d01	-0.02382517
147	0xbd56f37d	-0.052478302
148	0xbc697114	-0.014248151
149	0xbbb94b36	-0.005654718
150	0x3c503202	0.012707235
151	0x3c87b287	0.01656462
152	0x3c007dda	0.007842505
153	0xbd881f0a	-0.06646545
154	0xbceb22be	-0.02870309
155	0x3d6749f1	0.056467
156	0xbd5dd018	-0.05415353
157	0x3d04ebeb	0.03245155
158	0xba96ad2f	-0.0011495705
159	0x3db01f21	0.08599687
160	0xbc50bbb1	-0.012740062
161	0xbc907464	-0.017633624
162	0xbc50b903	-0.012739423
163	0xbd5e0a8f	-0.05420929
164	0xbd15e0e2	-0.036591418
165	0xbd3554ac	-0.044270203
166	0xbddcf179	-0.10788245
167	0xbdf45e3c	-0.11932036
168	0xbda695ac	-0.081340164
169	0xbcbd951e	-0.023142394
170	0xbdc9be0f	-0.09850704
171	0x3d672d97	0.056439962
172	0x3d967b8d	0.07347784
173	0xbd258a03	-0.04041482
174	0x3c6db18a	0.014507661
175	0x3c4f0596	0.012635609
176	0x3d925214	0.071445614
177	0x3dae2624	0.085033685
178	0x3d40e054	0.047088936
179	0x3d943d8a	0.072383
180	0xbd188e6a	-0.03724519
181	0xbd3be2c4	-0.045870557
182	0x3d4bd5f9	0.049764607
183	0x3c6b4b47	0.014361209
184	0xbc041a76	-0.008062949
185	0x3c4d5643	0.012532773
186	0xbd903b05	-0.07042507
187	0x3ce15f01	0.027511122
188	0x3d5e02b1	0.054201785
189	0x3e01061a	0.12599984
190	0xbcc4606d	-0.02397176
191	0xbd924c9d	-0.07143519
192	0x3c63c43e	0.013901768
193	0xbde7aa09	-0.113117285
194	0xbd8894eb	-0.06669029
195	0x3d8c8907	0.068620734
196	0xbd051379	-0.032489274
197	0xbdb4b7cc	-0.08824119
198	0x3ced592e	0.028973188
199	0xbd4a4b8b	-0.04938845
200	0x3c5dd721	0.01354006
201	0xbcc22408	-0.023698822
202	0xbdfcc06e	-0.123413906
203	0xbd261640	-0.040548563
204	0xbd95468e	-0.07288848
205	0xbdafa985	-0.08577255
206	0xbd3b7970	-0.04577011
207	0x3d78dd18	0.060757726
208	0x3c993940	0.018704057
209	0xbd1d4a86	-0.03840115
210	0x3d86bad6	0.06578605
211	0xbd290795	-0.041266996
212	0xbd74af2f	-0.05973738
213	0x3cd4311e	0.025902327
214	0xbc35d986	-0.011099225
215	0x3be36384	0.0069393534
216	0xbe08ad0a	-0.13347259
217	0xbdb5f489	-0.08884532
218	0x3c1aa4fd	0.00943875
219	0xbe0ab705	-0.13546379
220	0xbda17a3d	-0.07884643
221	0xbd17f33b	-0.037097197
222	0xbdb28dcd	-0.087184526
223	0xbe1c2f7b	-0.15252487
224	0xbe5de6a6	-0.21670017
225	0xbd9290a2	-0.07156493
226	0xbd9e6d6d	-0.07735715
227	0xbd2d2cf7	-0.04227921
228	0xbd6f8f14	-0.05848606
229	0xbda0740c	-0.07834634
230	0xbc0d4fb2	-0.008624958
231	0xbdc5049c	-0.0962002
232	0xbdc9ea87	-0.09859186
233	0xbcbfd296	-0.023415845
234	0xbc37add8	-0.011210881
235	0x3cad33e7	0.021142913
236	0xbc52599b	-0.012838746
237	0x3cf6bd30	0.030119509
238	0x3c933d5a	0.01797359
239	0x3d31bc64	0.043392554
240	0xbd5e335b	-0.054248195
241	0xbc80d55b	-0.015726736
242	0x3d166639	0.03671858
243	0x3c542f09	0.012950667
244	0xbd2eb5c3	-0.04265381
245	0xbdda53c7	-0.106605105
246	0x3d2ac85a	0.041694976
247	0xbd7bcc3b	-0.061474066
248	0xbd248241	-0.040163282
249	0x3d74f27b	0.05980156
250	0xbda3e24b	-0.08002146
251	0xbcd2654e	-0.025683071
252	0x3d455fab	0.04818694
253	0x3cb2ac3e	0.021810647
254	0x3d8c7e43	0.0686002
255	0x3da50fb8	0.08059639

bias f4 [64]
0	0x3c95bbb7	0.018277986
1	0x39f0ec59	0.0004595246
2	0xbd3d7bdf	-0.04626071
3	0xbce85c0d	-0.028364206
4	0xbd08cbba	-0.033397414
5	0xbcca087f	-0.024662254
6	0xbbe6edea	-0.0070474045
7	0xbcd1cec5	-0.02561129
8	0xbd76a3c6	-0.06021478
9	0xbdc297f4	-0.09501639
10	0xbd3de3ee	-0.04635995
11	0x3cd1e477	0.025621636
12	0x3cf1facd	0.029538536
13	0x3c314a95	0.010821004
14	0xbd771a9e	-0.06032812
15	0xbe5ed853	-0.21762209
16	0xbce2864e	-0.027651932
17	0xbd5eb87a	-0.05437515
18	0xbdfbf032	-0.12301673
19	0xbce6bc26	-0.028165888
20	0xbcb7b5a8	-0.022425488
21	0x3d2dd07f	0.042435165
22	0xbc3cae35	-0.011516144
23	0x3c5ad0af	0.013355418
24	0xbd8c397e	-0.06846903
25	0x3ce69229	0.028145866
26	0xbd4401c3	-0.047853243
27	0xbd2f37e6	-0.04277792
28	0x3d1b6bbe	0.037944548
29	0x3aabbba5	0.0013102187
30	0xbd6b01b4	-0.05737467
31	0xbd273ae7	-0.040827658
32	0xbd542d84	-0.05180122
33	0xbcca689b	-0.024708083
34	0xbe463739	-0.19357003
35	0xbda67e13	-0.081295155
36	0xbca7fedf	-0.020507274
37	0xbd6ae914	-0.057351187
38	0xbcf364db	-0.029711178
39	0xbdd871e6	-0.105685994
40	0xbe06c1e1	-0.13159896
41	0x3d0fc234	0.035097316
42	0x3c19f42e	0.009396596
43	0xbb3453e5	-0.0027515825
44	0xba6de28c	-0.00090745906
45	0xbe5540e7	-0.2082554
46	0x3d385bcb	0.045009416
47	0xbc2457eb	-0.010030727
48	0xbd64deb0	-0.055876434
49	0xbbb64686	-0.0055626063
50	0xbc8f7b85	-0.017514953
51	0x3bdee985	0.00680274
52	0x3d1019a1	0.03518069
53	0x3d46ba1a	0.048517324
54	0xbcfa18c1	-0.030529382
55	0xbd082ccf	-0.033245858
56	0x3d35b32d	0.04436033
57	0xbe3569f1	-0.17716195
58	0xbc5708c6	-0.01312465
59	0x3d6f5366	0.058429144
60	0xbdf4f3a3	-0.119605325
61	0xbcd7f189	-0.02636029
62	0xbdb1c2bd	-0.086797215
63	0x3bf57779	0.007491049

weight f4 [64, 64, 3, 3]
0	0x3d3393d8	0.043842167
1	0x3d8baaa1	0.06819654
2	0x3d19a63c	0.03751205
3	0x3d116f53	0.035506558
4	0x3d8a786c	0.0676125
5	0x3aeea114	0.0018205964
6	0x3da8e66b	0.08247074
7	0xbb288f87	-0.0025720315
8	0x3c98ab06	0.018636238
9	0x3dc0f07e	0.0942087
10	0x3cb7d953	0.022442495
11	0xbcb65b38	-0.022260293
12	0x3dc4cd8c	0.096095175
13	0x3c1a100b	0.009403239
14	0x3d028da5	0.031873364
15	0x3dae6f1f	0.085172884
16	0x3ce63b39	0.028104411
17	0x3d060fe6	0.032730006
18	0x3cf0c678	0.029391512
19	0x3cb8e13e	0.022568341
20	0xbd41f86e	-0.04735606
21	0x3d0aeb62	0.033915885
22	0xbcdb55e0	-0.026774347
23	0xbd756021	-0.05990613
24	0x3d2a1a81	0.041529182
25	0xbd2fe217	-0.042940225
26	0xbdbbbb72	-0.09166612
27	0xbd119eb4	-0.03555174
28	0xbd0708d7	-0.032967415
29	0xbd48408b	-0.048889678
30	0xbca1218a	-0.019669313
31	0xbc2cad56	-0.010539373
32	0xbd15947e	-0.036518566
33	0xbcccfa7b	-0.025021782
34	0xbba6419c	-0.005073739
35	0xb9ab348b	-0.0003265481
36	0xbd9df419	-0.077125736
37	0xbd959bb3	-0.07305088
38	0xbcad116e	-0.021126475
39	0x3b939915	0.004504333
40	0x3d09bf0c	0.033629462
41	0x3d8c54f8	0.06852144
42	0x3d78dfdf	0.060760375
43	0x3dc055b1	0.09391344
44	0x3dba8179	0.09106726
45	0xbdb4b4fe	-0.08823584
46	0xbcb0780e	-0.021541622
47	0xbde19788	-0.110152304
48	0x3cef5bae	0.029218521
49	0x3d890a82	0.06691457
50	0x3d3908c5	0.04517438
51	0x3ca9a9ef	0.020710913
52	0x3d426e5b	0.047468524
53	0x3d40bdc6	0.047055982
54	0x3cfd4e28	0.030921057
55	0xbbfe9019	-0.0077686426
56	0x3c598877	0.013277165
57	0xbcb41100	-0.021980762
58	0xbc9a9abb	-0.01887261
59	0xbd0994b8	-0.033589095
60	0x3d2694b9	0.040669177
61	0xbcc43c72	-0.023954604
62	0x3ca43d58	0.020048782
63	0x3d3b943c	0.045795664
64	0x3d80b6be	0.06284855
65	0x3c75a6d1	0.014993385
66	0xbc1a7425	-0.009427105
67	0x3bb62f0a	0.0055598067
68	0x3caa0ae5	0.020757148
69	0xbc6a083a	-0.014284188
70	0xbc892d36	-0.016745191
71	0xbb472352	-0.0030386043
72	0x3d8f4468	0.06995469
73	0x3bea5e2d	0.00715234
74	0xbd448eb8	-0.04798767
75	0x3ceae789	0.028674858
76	0x3cc89ef3	0.024489855
77	0x3c08702f	0.008327528
78	0x3d742689	0.059607062
79	0xbd2f9fba	-0.042876936
80	0xbd76a606	-0.060216926
81	0xbbb99fb7	-0.0056647914
82	0xbd45d730	-0.048300922
83	0x3d8dcac9	0.06923444
84	0xbdb8e651	-0.09028304
85	0xbc950245	-0.018189559
86	0x3dd79a45	0.105274715
87	0xbdc20b70	-0.09474838
88	0xbca0bae2	-0.019620363
89	0x3d6d8d23	0.057995927
90	0x3cb1e9f0	0.021717995
91	0x3c9e6852	0.019336853
92	0xbd85f9c1	-0.065417774
93	0x38159425	3.566234e-05
94	0xbba08b9a	-0.0048994543
95	0xbcd58939	-0.02606641
96	0xbd09df9f	-0.033660527
97	0xbcc2e375	-0.0237901
98	0x3b3e2c71	0.0029018188
99	0x3d231689	0.039816413
100	0xbc4debd6	-0.012568435
101	0xbc2fd7bb	-0.0107325865
102	0xbc0d7dee	-0.008635981
103	0xbc5299e8	-0.012854077
104	0x3cee0234	0.029053785
105	0x3bf4dd8e	0.0074727004
106	0xbaaf8fd9	-0.001339431
107	0x3ba28a8d	0.004960364
108	0xbd951336	-0.07279055
109	0xbc8b6a75	-0.017018536
110	0x3d1c9643	0.03822924
111	0xbca819bf	-0.02052009
112	0x3cf7053a	0.03015386
113	0x3c932b46	0.01796497
114	0x3c37a687	0.011209137
115	0x3cb3e079	0.021957623
116	0x3d226b65	0.0396532
117	0x3d95ce50	0.073147416
118	0x3c47c713	0.012193459
119	0xbd54d8e2	-0.051964648
120	0x3cf41352	0.029794369
121	0xbbcb25e6	-0.006199586
122	0xbda7b2a4	-0.0818837
123	0x3d5f5348	0.054522783
124	0xbd47f367	-0.04881611
125	0xbe19727e	-0.14985082
126	0x3d389604	0.04506494
127	0xbcd0480f	-0.025424985
128	0xbbf02cbb	-0.007329551
129	0x3b6108ee	0.0034337598
130	0x3cab38cd	0.020901108
131	0xbd0d5cf7	-0.034512486
132	0x3d35be31	0.044370834
133	0x3d59f15a	0.053208686
134	0xbce0cd91	-0.027441772
135	0x3d8a1260	0.06741786
136	0x3ce483a6	0.027894806
137	0xbbf74be2	-0.0075468877
138	0x3d69257a	0.056920506
139	0xbcc24378	-0.023713812
140	0x3d9598b0	0.073045135
141	0x3d6f040b	0.058353465
142	0x3d30625b	0.04306255
143	0x3c426876	0.011865726
144	0xbccd4ab4	-0.025060035
145	0xbc8788fe	-0.016544815
146	0x3b9fa949	0.0048724753
147	0xbd9247fd	-0.07142637
148	0xbaec8c5c	-0.0018047201
149	0xbc2e27aa	-0.010629574
150	0x3b674a62	0.0035292138
151	0xbba5c6e6	-0.005059111
152	0x3ce17ca5	0.027525255
153	0x3d436826	0.047706746
154	0xbc819917	-0.01582007
155	0xbc378107	-0.011200196
156	0xbc82dadb	-0.015973499
157	0xbd9f0f73	-0.077666186
158	0xbe09721d	-0.13422437
159	0x3ccd5c3b	0.025068393
160	0x39640857	0.00021746881
161	0xbd754b73	-0.059886407
162	0x3dcd544b	0.10025843
163	0x3d9de110	0.07708943
164	0x3cc700a0	0.02429229
165	0x3cd63437	0.026147945
166	0x3d0dfdd3	0.034665894
167	0x3c5c2e20	0.013438731
168	0x3dc8932e	0.09793697
169	0x3c23eb64	0.010004852
170	0x3c26ab18	0.010172628
171	0xbd342d17	-0.043988314
172	0xbde6e8a1	-0.11274839
173	0xbd3d0b86	-0.046153568
174	0x3c6dbf00	0.01451087
175	0xbda98c99	-0.0827877
176	0xbdafb80a	-0.085800245
177	0x3d0ce898	0.034401506
178	0x3b4f77aa	0.0031657019
179	0x3c8806c5	0.01660479
180	0x3cb76add	0.022389824
181	0xbd95dd24	-0.0731757
182	0xbda3e35e	-0.08002351
183	0x3c61ef8c	0.013790023
184	0xbd6ac56e	-0.05731719
185	0xbd755787	-0.059897926
186	0x3dde9a2e	0.10869251
187	0xbd1aa2b9	-0.03775284
188	0xbd0cc4fe	-0.034367554
189	0x3cc09b82	0.023511652
190	0x39ec7f9c	0.00045108504
191	0xbca3faea	-0.020017106
192	0xbc9741a6	-0.01846392
193	0xbd661948	-0.056176454
194	0xbc7cecb5	-0.015437295
195	0xb95f8441	-0.00021316206
196	0xbd8080f9	-0.062745996
197	0xbd192128	-0.037385136
198	0x3d61ed2c	0.055157825
199	0x3dd1ad25	0.10238103
200	0x3cfae466	0.030626487
201	0xbccbb31c	-0.02486568
202	0xbc3e6a57	-0.011622033
203	0xbd24fb82	-0.04027892
204	0xbb462f24	-0.00302405
205	0xbd3db504	-0.046315208
206	0xbd84069f	-0.064465754
207	0xbbe97521	-0.0071245586
208	0xbca02a20	-0.019551337
209	0xbcacfb1c	-0.021115832
210	0xbcda6134	-0.026657678
211	0x3b368df8	0.0027855616
212	0xbcfcf68b	-0.03087928
213	0xbb93c38d	-0.0045093955
214	0xbd332c2b	-0.043743294
215	0xbd3edb60	-0.04659593
216	0x3d782e6c	0.060591146
217	0xbc43d97e	-0.01195371
218	0xbd17a0b9	-0.03701851
219	0x3b29346d	0.0025818602
220	0xbc97a9b4	-0.018513538
221	0x3c17b86f	0.009260281
222	0xbcd52958	-0.02602069
223	0xbcbf23da	-0.023332525
224	0xbd68dc3f	-0.056850668
225	0xbd45cff0	-0.048294008
226	0x3d1f08de	0.038826816
227	0xbc8eab07	-0.017415537
228	0x3c1b75aa	0.0094885025
229	0xbca5d86d	-0.020244801
230	0x3c346951	0.0110114375
231	0xbbe3a051	-0.0069466014
232	0xbd13d081	-0.036087517
233	0xbc06efb3	-0.00823586
234	0x3c823da4	0.015898533
235	0xbdeeb275	-0.11655132
236	0xbdcb86b6	-0.099378034
237	0xbc757991	-0.014982597
238	0xbdae7abc	-0.085195035
239	0xbd925337	-0.07144778
240	0x3c9ec2f8	0.019380078
241	0xbdf55f31	-0.11981047
242	0xbe0f50b8	-0.13995636
243	0xbd68de35	-0.05685254
244	0xbd544ef6	-0.051833116
245	0x3a92f577	0.001121207
246	0xbda2260e	-0.079174146
247	0xbd73577a	-0.059409596
248	0x3d0dbd03	0.034604084
249	0xbdfec3ff	-0.12439727
250	0xbd02bc67	-0.031917956
251	0xbcba50b1	-0.022743555
252	0x3cb2340f	0.02175334
253	0x3d427fff	0.047485348
254	0x3d2bd1a7	0.041947987
255	0x3d2ae01f	0.041717645

bias f4 [64]
0	0x3d8c0551	0.068369515
1	0xbd1a6efb	-0.037703495
2	0x3cd209cf	0.025639443
3	0x3c9ec730	0.01938209
4	0xbc4e9ad6	-0.012610158
5	0xbd1dcb0e	-0.038523726
6	0x3cfcc884	0.030857332
7	0x3d64f2fa	0.055895783
8	0xbd118121	-0.035523538
9	0x3d5158d1	0.051110093
10	0xbd3e0de0	-0.04639995
11	0xb9a2adc6	-0.0003102852
12	0x3d7dc1f8	0.06195256
13	0x3cc9da82	0.024640325
14	0x3d85078e	0.064955816
15	0x3c8fe044	0.017562993
16	0x3ce411ba	0.027840484
17	0xbceca632	-0.028887842
18	0x3d47e0cf	0.04879838
19	0xbc8b4bc6	-0.017003905
20	0xbd1fb6c6	-0.038992666
21	0xbc025f74	-0.007957328
22	0x3d0a6c3c	0.033794627
23	0x3d2b871e	0.041876905
24	0x3c50437e	0.012711404
25	0x3baf6805	0.0053529763
26	0x3d00f64c	0.031484887
27	0xbc34e5f7	-0.011041156
28	0xbcf476f4	-0.029841878
29	0xbd80a568	-0.06281549
30	0xbd199d86	-0.03750374
31	0xbbe7b244	-0.0070708115
32	0xbd9140cd	-0.07092438
33	0xbd1b0b35	-0.037852485
34	0x3c8a0c71	0.016851636
35	0xbcb97b24	-0.022641726
36	0xbd3fa190	-0.046784937
37	0xbbae4034	-0.005317712
38	0xbd6d8bbd	-0.057994593
39	0x3cfaae23	0.030600613
40	0xbceec205	-0.02914525
41	0x3cdc96ec	0.026927434
42	0xbc94d1ac	-0.018166386
43	0x3d5001a8	0.05078283
44	0x3cc06f0c	0.023490451
45	0x3ce370ff	0.027763842
46	0x3d6d57f6	0.057945214
47	0xbd463758	-0.048392624
48	0xbcd64932	-0.02615795
49	0x3d83b159	0.06430311
50	0xbd28024d	-0.04101782
51	0x3d48f95e	0.04906594
52	0x3d6a5112	0.05720622
53	0xbd817ca3	-0.06322601
54	0x3c434e8d	0.011920583
55	0x3cdd03e8	0.026979402
56	0x3d8453ae	0.06461273
57	0xbc41bc46	-0.011824673
58	0xbd55663c	-0.05209945
59	0x3d48f87d	0.049065102
60	0xbd223fff	-0.039611813
61	0x3d61cc7f	0.055126663
62	0xbb68f491	-0.0035546164
63	0x3d5e7e58	0.05431971
